Final_model.pkl (torch, 455675 bytes, 14 tensors)

att_src f4 [1, 4, 96]
0.062217306 -0.18688901 -0.08637289 0.076124474 0.13048239 0.20110828 0.027909547 0.04889421
-0.009114653 0.0689296 0.02600539 -0.06910692 0.08814055 -0.06784227 0.027610512 0.26106647
0.110521585 0.3139452 -0.17931049 0.055773363 -0.10335112 -0.07635757 0.11962241 0.17338993
0.26010105 0.04554829 0.05379946 0.21165772 0.0053674923 -0.12240085 0.24573056 0.022448123
-0.30213186 0.100521706 -0.010405688 -0.10354251 0.16085821 -0.108128205 0.043974064 -0.07580047
-0.15837759 0.15505308 -0.66605896 -0.1996093 0.13585272 -0.094299376 0.08811506 0.07646814
-0.83996564 -0.057821956 0.06361775 -0.026872555 0.110064864 -0.57881 0.14091006 -0.52985823
0.061090786 -0.007882581 0.14294645 -0.18294543 -0.32516673 0.30546567 0.036941867 0.083825886
0.0467564 0.04417074 -0.14381531 0.033364207 -0.02386838 0.09746312 -0.035726454 -0.745319
-0.11749935 0.11280085 -0.32308444 0.14202793 -0.1523875 -0.18007338 0.3810306 -0.19103861
0.058612596 -0.2345691 0.3316995 -0.8266328 0.14494346 -0.17637199 -0.042621132 0.02798747
-0.054977298 -0.04122529 -0.0055119856 -0.10893649 -0.60164475 -0.057363424 0.019595943 0.058915712
0.023495343 0.09559029 0.10126174 -0.109287865 -0.4285543 -0.14079025 0.13739593 -0.1330744
-0.13938099 -0.025025971 -0.002776739 0.05559912 -0.09341936 0.023235591 0.2007223 -0.423268
-0.2860375 0.1451878 -0.19460449 0.19724606 0.07397531 -0.118160866 0.022440644 0.17205092
0.07794227 0.31634822 0.21839073 -0.011297367 0.22224759 -0.034187246 0.101315044 0.044622045
0.07005123 0.042927098 0.060459904 0.10257071 0.14050339 -0.0046269163 -0.31230006 0.043884717
-0.38170764 -0.64304847 -0.12932926 -0.10805143 -0.018942496 0.06091093 0.075657524 -0.57260823
-0.8026096 -0.37264252 0.03752226 -0.27215382 0.071326554 0.14495206 -0.7742801 0.11147033
0.07788446 0.02310392 -0.072736524 0.1784852 0.077871904 -0.71581674 0.17033498 -0.010207977
-0.26408806 -0.014907805 -0.12127115 -0.3547141 -0.060096134 0.14075756 -0.25040427 0.069182195
-0.12793143 -0.50406593 -0.29018098 0.17443968 -0.11119944 -0.29424807 -0.06407566 0.088393755
0.013985197 0.09194927 -0.14114398 -0.08671079 -0.047901087 -0.5588507 0.078917466 0.10948174
-0.16546711 0.02145934 0.07205311 0.08752391 0.012565002 0.14266612 0.042918254 0.053653575
0.24411632 -0.17320195 0.013597819 -0.14492501 -0.2248584 0.19830707 -0.1938407 -0.097048394
0.0034339887 0.13033113 -0.16040057 0.118679635 0.16565104 -0.12344196 0.103390016 -0.019688658
0.13872364 -0.0978354 0.3483771 -0.036751572 -0.10192704 -0.17765117 -0.13065858 -0.09964629
-0.0030760744 0.1597553 -0.096498795 -0.13333786 0.14233552 -0.070020735 -0.1915505 -0.17944413
-0.082140274 0.086356826 0.109786965 -0.06832376 0.18391034 -0.086287424 -0.0057499767 -0.04053652
-0.16148096 -0.079516776 0.10237053 -0.24875022 0.21369834 0.2357628 -0.05964815 -0.0024139057
-0.0035912977 0.009383187 0.13236211 0.15253304 -0.05903272 0.19014968 0.124792516 -0.121703066
0.15091527 -0.18432951 0.210662 0.24661523 -0.15195051 -0.12172931 -0.1257173 0.16533816
00000000: 93d7 7e3d d55f 3fbe 45e4 b0bd 26e7 9b3d
00000010: 2d9d 053e 54ef 4d3e 90a2 e43c 4c45 483d
00000020: a055 15bc f62a 8d3d 4109 d53c ee87 8dbd
00000030: 0883 b43d e3f0 8abd 712f e23c 81aa 853e
00000040: 2459 e23d 6dbd a03e 2b9d 37be 9c72 643d
00000050: c1a9 d3bd 5c61 9cbd 98fc f43d 218d 313e
00000060: f72b 853e d890 3a3d d35c 5c3d cdbc 583e
00000070: cae1 af3b 4cad fabd cba0 7b3e 20e5 b73c
00000080: 07b1 9abe 53de cd3d 9e7c 2abc 180e d4bd
00000090: 04b8 243e 5272 ddbd 261e 343d 473d 9bbd
000000a0: bc2d 22be 3cc6 1e3e d782 2abf 6166 4cbe
000000b0: fa1c 0b3e 0820 c1bd ab75 b43d 549b 9c3d
000000c0: fd07 57bf b7d6 6cbd 064a 823d d523 dcbc
000000d0: b069 e13d e42c 14bf ba4a 103e caa4 07bf
000000e0: 553a 7a3d f125 01bc 8e60 123e 0c56 3bbe
000000f0: 417c a6be ff65 9c3e 5b50 173d e8ac ab3d
00000100: a483 3f3d 61ec 343d 5244 13be e8a8 083d
00000110: 9f87 c3bc bf9a c73d e755 12bd 3acd 3ebf
00000120: 80a3 f0bd 2204 e73d 536b a5be c56f 113e
00000130: 780b 1cbe 2865 38be 7116 c33e a09f 43be
00000140: c313 703d e232 70be 84d4 a93e 359e 53bf
00000150: 0f6c 143e dc9a 34be 7f93 2ebd fb45 e53c
00000160: e02f 61bd dadb 28bd e39d b4bb 181a dfbd
00000170: 6405 1abf e9f5 6abd ac87 a03c 9a51 713d
00000180: 4e79 c03c d8c4 c33d 5162 cf3d 51d2 dfbd
00000190: 786b dbbe 522b 10be 85b1 0c3e a844 08be
000001a0: e4b9 0ebe 4403 cdbc f3f9 35bb e7bb 633d
000001b0: a652 bfbd 9158 be3c 268a 4d3e 95b6 d8be
000001c0: 8273 92be 1cac 143e 6646 47be dffa 493e
000001d0: 5e80 973d 53fe f1bd 71d5 b73c 1e2e 303e
000001e0: 32a0 9f3d 65f8 a13e d2a1 5f3e 9718 39bc
000001f0: df94 633e ed07 0cbd 437e cf3d 9bc5 363d
00000200: 0577 8f3d 53d4 2f3d cea4 773d 9810 d23d
00000210: 1fe0 0f3e 639d 97bb cbe5 9fbe 76c0 333d
00000220: 2f6f c3be d39e 24bf e46e 04be 114a ddbd
00000230: 4b2d 9bbc bd7d 793d 55f2 9a3d 7496 12bf
00000240: d377 4dbf 00cb bebe f1b0 193d bf57 8bbe
00000250: a813 923d 506e 143e 3837 46bf 8e4a e43d
00000260: e381 9f3d 6f44 bd3c e3f6 94bd d3c4 363e
00000270: 4e7b 9f3d c43f 37bf 4b6c 2e3e 5c3f 27bc
00000280: 8d36 87be de3f 74bc 025d f8bd 169d b5be
00000290: 5d27 76bd c022 103e fd34 80be 65af 8d3d
000002a0: 7500 03be 770a 01bf 9a92 94be 51a0 323e
000002b0: 88bc e3bd afa7 96be 1a3a 83bd c907 b53d
000002c0: 2b22 653c e64f bc3d 0c88 10be 6d95 b1bd
000002d0: ee33 44bd d710 0fbf 7b9f a13d f637 e03d
000002e0: 3670 29be 7fcb af3c 9590 933d bc3f b33d
000002f0: 70dd 4d3c 1117 123e 0dcb 2f3d dac3 5b3d
00000300: a1f9 793e da5b 31be 63c9 5e3c 3967 14be
00000310: 4841 66be 0211 4b3e 2d7e 46be 4fc1 c6bd
00000320: c50c 613b 8675 053e 0c40 24be 4f0e f33d
00000330: 6da0 293e 23cf fcbd 25be d33d 1c4a a1bc
00000340: 920d 0e3e ed5d c8bd 7c5e b23e d188 16bd
00000350: 20bf d0bd 30ea 35be 5dcb 05be 5b13 ccbd
00000360: f797 49bb e596 233e 29a1 c5bd b889 08be
00000370: 67c0 113e 0867 8fbd d025 44be 34c0 37be
00000380: 2939 a8bd d9db b03d fdd7 e03d 54ed 8bbd
00000390: fe52 3c3e 76b7 b0bd 4d6a bcbb 9f09 26bd
000003a0: 445b 25be b1d9 a2bd a4a7 d13d 61b8 7ebe
000003b0: bdd3 5a3e ce6b 713e 9e51 74bd 9e32 1ebb
000003c0: fa5b 6bbb f0bb 193c ef89 073e 9f31 1c3e
000003d0: 4bcc 71bd 99b6 423e 3893 ff3d 753f f9bd
000003e0: 8889 1a3e e0c0 3cbe c8b7 573e b488 7c3e
000003f0: ea98 1bbe 374d f9bd 09bc 00be 684e 293e

att_dst f4 [1, 4, 96]
-0.008349047 0.0035925338 0.0024345338 -0.005020144 -0.0020031407 0.0004964204 -0.006004271 -0.005092492
-0.0010437951 0.006547762 0.007446446 -0.0019821278 -0.0030990802 0.0018080984 0.0024763157 -0.014746595
-0.002837637 -0.019365868 -0.0025954577 -0.006389651 0.0046490245 0.0052616238 -0.005518293 -0.0023250286
-0.001253554 -0.0036730063 -0.009391041 -0.011866803 -0.005355729 -0.0021491142 -0.0074705537 -0.008596723
-0.034344804 -0.0010173 -0.0018940144 0.0019525625 0.0010657645 -0.00043399647 -0.00572373 -0.0044334903
-0.00071605766 -0.004316725 0.005176708 0.0018928448 -0.005086624 0.0037556149 2.8116941e-05 -0.0071088714
-0.023317516 -0.0013493907 0.00627976 0.0028975098 -0.004700961 -0.007435186 -0.008079603 -0.0073474413
-0.005080123 -0.0006224838 0.00058432674 -0.036074694 0.030766502 0.0025439062 0.0009371578 0.010080246
0.004359813 0.0057963245 0.0022645395 -0.0031176466 -8.7857436e-05 -0.02366373 0.002564262 -0.0031581814
-0.0050427187 0.003217443 0.0001057749 -0.010005469 -0.0032310742 0.002526953 -0.0043985434 -0.0006580442
0.0009233564 -0.029907476 -0.007941018 4.7285223e-05 -0.0038967219 0.011171786 0.012015938 -0.005174837
-0.0020051762 -0.0016061876 -0.0066966917 9.668294e-05 -0.044719946 -0.0023978632 0.00038504144 -0.00010665022
-0.07279985 -0.017896213 -0.027695931 -0.13271312 -0.011183835 0.0066179857 -0.0207791 -0.009223792
0.014509939 0.008782313 0.0016796616 -0.07806532 -0.0049252743 -0.005873751 -0.0037061304 -0.05321739
-0.035252135 -0.017917644 -0.02425245 -0.047726568 -0.017049419 -0.020041699 0.004381984 -0.00620909
-0.017187448 -0.026449688 -0.018655796 -0.0013720171 -0.05806619 -0.0044543985 0.0046966122 0.0057125567
0.0018824042 -0.010916749 -0.014164488 -0.018624004 -0.012178971 -0.0006264362 -0.03621002 0.0024310197
-0.045053646 0.019314367 -0.00023901083 -0.086848974 -0.002636384 -0.018633772 -0.010759206 0.019980181
-0.09649692 -0.044759072 -0.006562009 -0.03315556 -0.015384853 -0.0030403037 0.011987255 -0.033371463
-0.020803306 0.0025079176 -0.012425609 -0.017357912 -0.015105134 -0.08679534 -0.008027368 -0.006796639
-0.0015234255 0.0013033622 -0.014421437 -0.042200703 -0.005948455 0.00129725 -0.029199079 -0.01197851
-0.015535639 0.001844901 -0.035715755 -0.015283986 -0.004161164 -0.036938008 0.011264168 -0.0047927704
-0.012531215 -0.015570677 -0.01705955 0.00455132 -0.0066120494 0.011927796 0.0039909934 -0.0019974674
-0.01993956 -0.0022189624 -0.0042819506 -0.058711912 -0.011368043 -0.018890487 -0.005211687 -0.019131789
0.0110833235 -0.035622466 -0.013498246 -0.014153459 -0.029759342 0.037651032 -0.06445664 -0.021951301
-0.011370849 0.011382269 -0.036180954 0.015240187 0.03242854 -0.026718719 -0.05175714 -0.0037108685
0.016087808 -0.022461817 0.02958608 -0.008111699 -0.022540815 -0.036743917 -0.028447054 -0.021449015
-0.00046036803 0.039538976 -0.007043858 -0.038383424 0.044845004 -0.01536447 -0.03931511 -0.043183286
0.028472172 0.0055127586 0.010587794 -0.0389498 0.0073414063 -0.046704534 -0.0013338797 -0.009300934
-0.035643693 -0.01680787 0.000110456174 -0.058967505 -0.0021343254 0.042780858 -0.013464743 -0.012755725
-0.00082113245 -0.013555473 0.036412828 0.0067905122 -0.019655628 0.021528056 0.00082951935 -0.035008293
-0.013269297 -0.013735792 0.030817347 0.04421042 -0.02907699 -0.026777588 -0.028201038 0.032991655
00000000: 71ca 08bc b770 6b3b b38c 1f3b 0580 a4bb
00000010: 2047 03bb 3622 023a 7abf c4bb ebde a6bb
00000020: f4cf 88ba 9c8e d63b 5101 f43b 96e6 01bb
00000030: f019 4bbb b7fd ec3a af49 223b b49b 71bc
00000040: a6f7 39bb 2ba5 9ebc 8e18 2abb 4760 d1bb
00000050: d856 983b b369 ac3b ccd2 b4bb 825f 18bb
00000060: 4b4e a4ba d2b6 70bb e1dc 19bc fb6c 42bc
00000070: 1c7f afbb 27d8 0cbb 8ccb f4bb 45d9 0cbc
00000080: 23ad 0cbd ec56 85ba 9440 f8ba 20ed ff3a
00000090: 1fb1 8b3a 058a e3b9 218e bbbb d046 91bb
000000a0: d1b5 3bba 5073 8dbb 60a1 a93b 5519 f83a
000000b0: b2ad a6bb c320 763b acdc eb37 89f1 e8bb
000000c0: 6004 bfbc 0ade b0ba 72c6 cd3b 26e4 3d3b
000000d0: 850a 9abb dca2 f3bb 5060 04bc cec2 f0bb
000000e0: 2977 a6bb 2e2e 23ba 812d 193a 0fc3 13bd
000000f0: 080a fc3c aab7 263b 98ab 753a 9e27 253c
00000100: c3dc 8e3b 18ef bd3b ab68 143b 6e51 4cbb
00000110: 1a40 b8b8 70da c1bc 2d0d 283b 7ef9 4ebb
00000120: 643d a5bb bcdb 523b 78d3 dd38 fbed 23bc
00000130: 6ec0 53bb 3c9b 253b a821 90bb 9980 2cba
00000140: 660d 723a 8600 f5bc 0b1b 02bc 1f54 4638
00000150: 2560 7fbb de09 373c 7fde 443c ae91 a9bb
00000160: 4669 03bb b686 d2ba ec6f dbbb 42c2 ca38
00000170: 432c 37bd 7825 1dbb 63df c939 67a9 dfb8
00000180: 1618 95bd 149b 92bc 94e2 e2bc f3e5 07be
00000190: 673c 37bc b0db d83b ee38 aabc 631f 17bc
000001a0: 18bb 6d3c b1e3 0f3c 1728 dc3a b6e0 9fbd
000001b0: 3264 a1bb 9878 c0bb 8de2 72bb 7afa 59bd
000001c0: 8b64 10bd 06c8 92bc 13ad c6bc ef7c 43bd
000001d0: 39ab 8bbc 7d2e a4bc bf96 8f3b 9f75 cbbb
000001e0: b1cc 8cbc 04ad d8bc 0ad4 98bc 41d5 b3ba
000001f0: d0d6 6dbd 34f6 91bb 0ae6 993b 6630 bb3b
00000200: 01bb f63a 2adc 32bc 2b12 68bc 5e91 98bc
00000210: 4f8a 47bc 6c37 24ba f550 14bd be51 1f3b
00000220: 2c8a 38bd 2a39 9e3c fb9e 7ab9 e0dd b1bd
00000230: 2fc7 2cbb daa5 98bc 6147 30bc 7aad a33c
00000240: 2da0 c5bd 4a55 37bd 1f06 d7bb 20ce 07bd
00000250: c010 7cbc d53f 47bb 3166 443c 84b0 08bd
00000260: b26b aabc e05b 243b c894 4bbc 2e32 8ebc
00000270: 867b 77bc c1c1 b1bd 3985 03bc 57b6 debb
00000280: adad c7ba 94d5 aa3a e447 6cbc a5da 2cbd
00000290: 42eb c2bb 7d08 aa3a e832 efbc 8341 44bc
000002a0: 3189 7ebc 9bd0 f13a af4a 12bd af69 7abc
000002b0: 605a 88bb 4f4c 17bd 588d 383c ac0c 9dbb
000002c0: ba4f 4dbc 271c 7fbc 78c0 8bbc 3d23 953b
000002d0: e4a9 d8bb cd6c 433c e1c6 823b f1e7 02bb
000002e0: 4a58 a3bc 036c 11bb 9b4f 8cbb e77b 70bd
000002f0: 0741 3abc 39c0 9abc cdc6 aabb 45ba 9cbc
00000300: d496 353c dde8 11bd bf27 5dbc e9e3 67bc
00000310: ddc9 f3bc f837 1a3d d801 84bd 37d3 b3bc
00000320: cc4c 3abc b27c 3a3c 7b32 14bd fab1 793c
00000330: cad3 043d 37e1 dabc 4bff 53bd 0b32 73bb
00000340: 94ca 833c d801 b8bc 825e f23c eee6 04bc
00000350: 84a7 b8bc ca80 16bd cc09 e9bc d8b5 afbc
00000360: 8d5d f1b9 9ff3 213d 2ad0 e6bb f037 1dbd
00000370: 65af 373d 42bb 7bbc e108 21bd f5e0 30bd
00000380: 793e e93c 5fa4 b43b 6d78 2d3c d389 1fbd
00000390: 2e90 f03b 414d 3fbd 93d5 aeba f262 18bc
000003a0: 1fff 11bd a8b0 89bc b5a4 e738 e987 71bd
000003b0: 0ae0 0bbb fb3a 2f3d 3a9b 5cbc 63fd 50bc
000003c0: 4441 57ba c617 5ebc 9e25 153d f282 de3b
000003d0: d704 a1bc 9b5b b03c 1a74 593a db64 0fbd
000003e0: 7767 59bc 160c 61bc a974 fc3c fc15 353d
000003f0: de32 eebc ac5c dbbc dd05 e7bc 4222 073d

bias f4 [384]
0.0114525175 0.009077354 0.0125656 -0.026444968 -0.022655416 -0.05630197 0.0025116175 0.01501377
0.008764584 -0.040954266 -0.018939678 -0.008329441 -0.015450596 -0.009073904 0.007772005 -0.06719106
-0.018949168 -0.07161239 0.0004532198 -0.00049294945 0.005428559 -0.006358496 -0.0041082515 0.015655437
-0.03690071 -0.005565843 -0.0027279137 -0.074139215 0.0061968225 0.008985006 -0.018245108 -0.02262843
-0.10102208 0.008975581 0.0028626523 0.0007596851 -0.03224608 -0.013073249 -0.015750064 -0.012720071
-0.038917832 -0.008846605 -0.12490295 -0.0340185 -0.006639732 -0.014102682 0.005091745 -0.01628931
-0.08857314 -0.013034819 -0.024628796 -0.023979038 0.0126703875 -0.09087065 0.0014606012 -0.07158899
-0.02771911 -0.0032960088 0.00011257154 -0.06713656 -0.06282718 -0.040908933 -0.0146315 -0.010826588
-0.028647097 -0.00043993312 0.0011271763 0.0075495997 0.009230651 -0.058481142 -0.014813872 0.015344573
-0.024736129 -0.04872451 0.028726546 -0.0068070344 0.020337168 0.017660093 -0.048643116 0.0067699174
-0.028960422 -0.078227155 -0.051243823 0.008025634 -0.012895564 -0.047383912 -0.03275513 0.008283298
0.011970437 -0.014085369 -0.017933507 -0.0065099746 -0.12345407 -0.007665409 0.0033727053 -0.027655965
-0.04128129 -0.0278334 0.005019545 -0.06311171 0.092190705 0.0133504765 -0.030223057 0.00938283
0.0040520867 0.016508017 -0.01189499 -0.050534155 0.008238883 0.012290456 -0.016319426 0.00012711184
-6.799704e-05 0.009427972 6.431185e-05 -0.04030022 0.005326516 -0.009987507 -0.005940681 -0.03665681
-0.048005477 -0.07290813 -0.031217078 1.7457995e-06 -0.04726964 5.285444e-06 -0.024231734 -0.033857193
-0.031985972 0.009941537 -0.016874416 0.011446539 -0.0031080307 1.1308754e-06 -0.0027743827 -0.008559213
-0.00063579244 0.024966197 -0.0134372795 -0.011126193 2.4620902e-06 0.019674797 0.0057993126 0.025483193
0.00024618834 4.838654e-05 -0.008788856 1.3910762e-05 -0.025246121 -0.01547946 0.0798995 -0.008327368
-0.007859031 0.014085458 0.012626806 -0.0036461588 0.003892967 5.666433e-05 -0.017060868 0.003872085
-0.006229261 -0.0120998975 -0.0021706747 -8.17006e-05 0.016049564 -0.035879407 -0.0031608883 -0.024986425
-0.00024985764 0.021703469 9.015327e-05 -0.005964768 0.003105276 5.89043e-05 -0.0017779928 -0.0033970121
0.009527172 0.042281058 -0.0007217681 -0.008940215 -4.4628327e-06 0.050766744 -0.03190244 -0.040580757
-6.295133e-05 -0.011642431 -0.027786596 -0.03650566 0.018035948 -0.03393041 0.010311373 0.016081486
-0.030041646 7.837463e-05 0.008121722 -0.007912096 -0.01992104 0.0015669224 0.0037361158 -0.004104687
-0.010095711 -0.002397733 -0.006053587 0.00053287455 -0.024484333 -0.00014292181 -0.08425272 -0.037425913
-0.02164223 -0.00065112574 -0.004762577 2.2688373e-06 -0.0048294067 -0.012526316 -0.00030807764 7.792628e-05
-0.0004401707 0.008014214 -0.012723775 -0.003078409 0.016688652 -1.5218387e-05 3.4958182e-05 0.019928277
-0.0065249423 -0.018056346 0.0084678745 -0.014448746 -0.0096854055 -0.022957334 5.5533605e-05 -0.0009856796
-0.0020792459 3.4608413e-05 0.0072375443 0.01036068 -0.07646518 -0.023937881 -0.0006070874 -0.0042636385
2.2434453e-07 -0.0050961794 -0.018238997 0.0003987157 -0.01720668 -0.0050755357 -0.06683197 -0.00983473
-0.0030337365 -0.0020130505 -0.015082973 0.013483763 0.0013341247 -0.0016124839 -0.0042467657 0.017159408
00000000: 57a3 3b3c 2fb9 143c f2df 4d3c 1ea3 d8bc
00000010: da97 b9bc e59c 66bd f399 243b 51fc 753c
00000020: 5499 0f3c a9bf 27bd 6227 9bbc 3578 08bc
00000030: 7f24 7dbc b6aa 14bc 4eac fe3b 779b 89bd
00000040: 493b 9bbc 84a9 92bd 229e ed39 4739 01ba
00000050: 0ee2 b13b ee5a d0bb 839e 86bb d53f 803c
00000060: 3325 17bd ad61 b6bb ccc6 32bb 4dd6 97bd
00000070: b70e cb3b d935 133c c476 95bc 425f b9bc
00000080: aae4 cebd 510e 133c 569b 3b3b 9b25 473a
00000090: 7714 04bd 2e31 56bc 4706 81bc d867 50bc
000000a0: 4e68 1fbd 5af1 10bc 1ecd ffbd fc56 0bbd
000000b0: 1c92 d9bb ef0e 67bc a7d8 a63b 2971 85bc
000000c0: d665 b5bd fe8f 55bc 54c2 c9bc b06f c4bc
000000d0: 7597 4f3c 641a babd a571 bf3a 409d 92bd
000000e0: 3013 e3bc da01 58bb 6314 ec38 e57e 89bd
000000f0: 89ab 80bd 2090 27bd f5b8 6fbc 0062 31bc
00000100: 51ad eabc d3a6 e6b9 c3bd 933a a262 f73b
00000110: 283c 173c ec89 6fbd e2b5 72bc ce67 7b3c
00000120: 6ca3 cabc 5a93 47bd ef53 eb3c 8b0d dfbb
00000130: 229a a63c e6ab 903c 013e 47bd 2fd6 dd3b
00000140: 683e edbc 8f35 a0bd 0be5 51bd f37d 033c
00000150: ea47 53bc a215 42bd 3e2a 06bd acb6 073c
00000160: a71f 443c 52c6 66bc 4ae9 92bc a051 d5bb
00000170: 7dd5 fcbd 1c2e fbbb 9b08 5d3b c38e e2bc
00000180: 9216 29bd df02 e4bc ff7a a43b b640 81bd
00000190: 7bce bc3d f5bb 5a3c 5896 f7bc 71ba 193c
000001a0: 5ec7 843b d23b 873c 34e3 42bc e7fc 4ebd
000001b0: 61fc 063c e95d 493c 51b0 85bc 5349 0539
000001c0: a299 8eb8 c877 1a3c 29df 8638 d811 25bd
000001d0: 0e8a ae3b a4a2 23bc 0baa c2bb 7425 16bd
000001e0: 64a1 44bd dc50 95bd f5ba ffbc 3751 ea35
000001f0: cf9d 41bd 9e59 b136 a181 c6bc d7ad 0abd
00000200: b903 03bd d4e1 223c 373c 8abc 448a 3b3c
00000210: 1ab0 4bbb 95c8 9735 6bd2 35bb f13b 0cbc
00000220: 4fab 26ba e985 cc3c 0928 5cbc a34a 36bc
00000230: 633a 2536 0a2d a13c 2908 be3b 21c2 d03c
00000240: d712 8139 a7f2 4a38 22ff 0fbc 4562 6937
00000250: f4d0 cebc 909d 7dbc 59a2 a33d 836f 08bc
00000260: 2ac3 00bc b1c6 663c aae0 4e3c 65f4 6ebb
00000270: 2621 7f3b dcaa 6d38 3cc3 8bbc cec2 7d3b
00000280: d41e ccbb a63e 46bc e141 0ebb ad56 abb8
00000290: 607a 833c 49f6 12bd e826 4fbb 55b0 ccbc
000002a0: 53ff 82b9 79cb b13c ab10 bd38 1a74 c3bb
000002b0: e381 4b3b 0310 7738 8a0b e9ba 68a0 5ebb
000002c0: db17 1c3c e72e 2d3d 0a35 3dba fb79 12bc
000002d0: 71bf 95b6 caf0 4f3d 22ac 02bd 0238 26bd
000002e0: bd04 84b8 e5bf 3ebc b7a0 e3bc f586 15bd
000002f0: 20c0 933c 9dfa 0abd 08f1 283c 52bd 833c
00000300: e619 f6bc 0f5d a438 f910 053c bca1 01bc
00000310: 7331 a3bc 3161 cd3a 9fd9 743b 9c80 86bb
00000320: 7b68 25bc 4923 1dbb 2b5d c6bb 9bb0 0b3a
00000330: 5e93 c8bc 48dd 15b9 b18c acbd ea4b 19bd
00000340: 0c4b b1bc 4fb0 2aba 640f 9cbb 5442 1836
00000350: 0040 9ebb 2d3b 4dbc 7b85 a1b9 5a6c a338
00000360: b6c6 e6b9 0d4e 033c 6177 50bc 22bf 49bb
00000370: a4b6 883c 7952 7fb7 10a0 1238 a040 a33c
00000380: 2fcf d5bb e7ea 93bc d7bc 0a3c 6fba 6cbc
00000390: 89af 1ebc 0511 bcbc c1ec 6838 eb31 81ba
000003a0: f543 08bb 8028 1138 ec28 ed3b d7bf 293c
000003b0: c799 9cbd 6019 c4bc f224 1fba feb5 8bbb
000003c0: 5be3 7034 dafd a6bb f369 95bc b70a d139
000003d0: 06f5 8cbc ae50 a6bb 33df 88bd d921 21bc
000003e0: a7d1 46bb 62ed 03bb 931e 77bc 00eb 5c3c
000003f0: ccdd ae3a fb59 d3ba 7428 8bbb e391 8c3c

weight f4 [384, 129]
0.05302786 0.07901601 -0.100618035 0.0034283847 -0.01173531 0.039152097 -0.040443856 0.039616838
0.01549233 0.11183285 0.05061067 -0.068080604 -0.013090416 -0.011959196 0.050250933 0.078144014
-0.013936544 -0.035491254 0.18091549 0.15081324 -0.0438825 0.01718659 -0.02233539 -0.034590337
-0.045873985 0.025321277 -0.050617598 0.059833046 -0.11571464 -0.08771315 -0.016447093 -0.19082014
-0.08824935 -0.018540677 -0.10811518 0.11733132 -0.010852115 -0.037931643 0.009228629 0.06663948
-0.14225261 0.06647975 0.042821255 -0.06550283 -0.038506113 -0.0058317673 -0.037872218 0.028559119
0.037855424 -0.090998456 0.09183688 -0.034410443 0.012449794 -0.042179145 0.06477795 -0.037630636
0.043068707 -0.026305094 -0.042701267 0.18340161 0.071707204 -0.07720603 -0.03310339 0.0003061068
-0.01983342 0.09601277 -0.044892788 -0.00316702 -0.07044374 -0.09556689 -0.06800864 0.0029370165
0.054224376 -0.018799989 0.004158993 -0.053653788 -0.12680602 0.04707594 0.015153462 0.17718455
-0.04163511 -0.118410885 0.096480794 0.011763948 -0.027206436 -0.033283252 -0.07976045 -0.30742702
-0.059001006 0.028505504 -0.055690125 -0.06714004 -0.09364586 0.057257432 -0.16893293 -0.020890081
-0.05353552 0.11475678 0.13387085 -0.06670027 -0.021922598 -0.1048889 -0.0093122 -0.03337441
0.0357435 0.12188016 0.00058916246 -0.07627975 -0.055374227 0.102333985 0.06728433 0.14643063
0.044494346 -0.0034575725 0.086258195 -0.07453239 0.15200281 0.054163273 -0.13820232 0.024717338
0.024898147 0.1039275 -0.08492365 -0.019849319 -0.108187124 -0.020975295 0.16166285 -0.077010676
-0.0052641486 0.09138388 0.026174733 -0.118665405 0.0881473 -0.14339875 0.02928429 -0.011976576
0.036998693 0.022858769 0.0038373664 -0.08345561 0.098533355 0.012691696 -0.20888081 0.01713002
-0.0502336 0.11605872 0.022471476 -0.08776784 -0.060361862 0.06520126 -0.09387468 0.039191578
-0.14648408 0.14732274 -0.05074452 -0.06865787 -0.13594313 -0.084927104 -0.0010627164 0.016491154
0.11286182 -0.03450784 -0.10567955 -0.06231522 -0.0121009685 -0.04652203 -0.09443907 -0.11369934
0.040639736 0.05054336 -0.12004135 0.053387195 0.048535194 -0.042501286 0.0460096 0.047832042
-0.020066861 0.16051942 -0.08483067 -0.058949683 0.018882811 0.11773953 0.005836053 -0.03466352
-0.07486615 0.103072874 0.13995472 0.06716664 -0.17667054 -0.047334556 0.0007611997 -0.040586423
-0.080664955 0.04452578 0.013495289 0.03888059 -0.041002 -0.0050641703 -0.0029973486 0.098000966
-0.0737454 -0.013020827 0.020282257 0.12494847 -0.009429558 0.04282696 -0.03375994 -0.019128298
-0.045068607 -0.082071625 0.12209002 0.0646613 0.02553469 -0.006232533 0.06424593 -0.061060194
-0.0300134 0.054760806 -0.041632738 0.09607922 -0.0102399355 -0.1415526 -0.047959927 -0.059330933
-0.017820435 0.046610635 -0.07575294 0.0060759187 -0.048287723 0.0110103125 -0.031136932 0.04934662
-0.063550785 0.040961567 -0.10823037 -0.12573227 0.017377451 -0.05216271 -0.13955443 -0.015180338
-0.09199499 -0.16868863 -0.14831796 0.00091437617 -0.21069297 0.0013102936 -0.02492752 0.06654916
0.07249941 0.068998404 0.0075603044 -0.07094235 0.13211021 -0.040791247 -0.070885375 0.033208236
00000000: be33 593d 25d3 a13d d410 cebd c0ae 603b
00000010: 7545 40bc f35d 203d 75a8 25bd 4445 223d
00000020: 8bd3 7d3c 9f08 e53d 224d 4f3d d86d 8bbd
00000030: 2f79 56bc 81f0 43bc ecd3 4d3d f809 a03d
00000040: 1a56 64bc 475f 11bd e941 393e c96e 1a3e
00000050: 23be 33bd e4ca 8c3c b5f8 b6bc 99ae 0dbd
00000060: 5ce6 3bbd 916e cf3c 6654 4fbd 7f13 753d
00000070: ccfb ecbd f4a2 b3bd 0ebc 86bc 5b66 43be
00000080: 13bc b4bd 9ee2 97bc 7e6b ddbd 674b f03d
00000090: 12cd 31bc 365e 1bbd ad33 173c 487a 883d
000000a0: abaa 11be 8926 883d 5765 2f3d 5926 86bd
000000b0: 96b8 1dbd 6918 bfbb e61f 1bbd d0f4 e93c
000000c0: 4a0e 1b3d 665d babd f914 bc3d f7f1 0cbd
000000d0: 39fa 4b3c 0ac4 2cbd 4daa 843d 9522 1abd
000000e0: d068 303d c87d d7bc 86e7 2ebd a2cd 3b3e
000000f0: 3adb 923d 321e 9ebd 6c97 07bd f67c a039
00000100: b279 a2bc 58a2 c43d 80e1 37bd c78d 4fbb
00000110: cf44 90bd 93b8 c3bd 1d48 8bbd f67a 403b
00000120: 611a 5e3d 6f02 9abc 2948 883b 13c4 5bbd
00000130: 70d9 01be b3d2 403d 3a46 783c de6f 353e
00000140: 9489 2abd 6881 f2bd b997 c53d 93bd 403c
00000150: 08e0 debc 0554 08bd 7259 a3bd 1367 9dbe
00000160: 0aab 71bd 6084 e93c 541b 64bd b880 89bd
00000170: 67c9 bfbd c586 6a3d c1fc 2cbe ad21 abbc
00000180: 1048 5bbd 9a05 eb3d 7115 093e 279a 88bd
00000190: 0597 b3bc fecf d6bd 3392 18bc 9bb3 08bd
000001a0: c767 123d 4e9c f93d 0672 1a3a 8f38 9cbd
000001b0: 16d0 62bd 7b94 d13d 5ecc 893d e9f1 153e
000001c0: b43f 363d 7198 62bb 23a8 b03d 70a4 98bd
000001d0: a0a6 1b3e 4fda 5d3d e984 0dbe 047c ca3c
000001e0: 33f7 cb3c f1d7 d43d 73ec adbd 0a9b a2bc
000001f0: 3691 ddbd 62d4 abbc f28a 253e c6b7 9dbd
00000200: e17e acbb 7927 bb3d 656c d63c d906 f3bd
00000210: 9286 b43d 1fd7 12be 9be5 ef3c 6739 44bc
00000220: f18b 173d 5042 bb3c 537c 7b3b c6ea aabd
00000230: dbcb c93d d5f0 4f3c dae4 55be 4154 8c3c
00000240: bfc1 4dbd 32b0 ed3d 1a16 b83c a0bf b3bd
00000250: 003e 77bd 3d88 853d 5e41 c0bd 5987 203d
00000260: ecff 15be c6db 163e 7cd9 4fbd 7f9c 8cbd
00000270: ad34 0bbe 43ee adbd d84a 8bba 7518 873c
00000280: 1924 e73d 1858 0dbd 856e d8bd 3e3e 7fbd
00000290: 2443 46bc e28d 3ebd 4569 c1bd 33db e8bd
000002a0: da75 263d 8e06 4f3d 3dd8 f5bd 88ac 5a3d
000002b0: d7cc 463d d415 2ebd 9074 3c3d 88eb 433d
000002c0: 4263 a4bc 345f 243e b4bb adbd 3975 71bd
000002d0: 20b0 9a3c 6c21 f13d 5c3c bf3b 56fb 0dbd
000002e0: 6d53 99bd df17 d33d 4a50 0f3e aa8e 893d
000002f0: 1fe9 34be e1e1 41bd 3f8b 473a f33d 26bd
00000300: ab33 a5bd aa60 363d 581b 5d3c 4141 1f3d
00000310: b7f1 27bd 57f1 a5bb 2a6f 44bb bbb4 c83d
00000320: d407 97bd 4f55 55bc fa26 a63c fce4 ff3d
00000330: 6f7e 1abc 536b 2f3d dd47 0abd f3b2 9cbc
00000340: dc99 38bd 2b15 a8bd 550a fa3d 256d 843d
00000350: 202e d13c 473a ccbb 5f93 833d 411a 7abd
00000360: a9de f5bc de4c 603d 1787 2abd 2fc5 c43d
00000370: 67c5 27bc 2af3 10be a171 44bd fe04 73bd
00000380: 29fc 91bc cbea 3e3d 5b24 9bbd 8018 c73b
00000390: 59c9 45bd 9964 343c e112 ffbc ae1f 4a3d
000003a0: ea26 82bd 51c7 273d e2a7 ddbd f6bf 00be
000003b0: 285b 8e3c 91a8 55bd 5be7 0ebe f4b6 78bc
000003c0: df67 bcbd b6bc 2cbe aae0 17be bfb2 6f3a
000003d0: e6bf 57be 28be ab3a cc34 ccbc ed4a 883d
000003e0: 927a 943d 094f 8d3d 6ebc f73b 394a 91bd
000003f0: e647 073e b914 27bd 5a2c 91bd 5c05 083d

att_src f4 [1, 1, 128]
0.07144185 -0.009386927 0.088854276 0.2359913 0.06363261 -0.038386967 -0.22255267 -0.06498601
0.1302389 0.0097829085 0.021962298 0.07501218 -0.38327152 0.08850137 0.002900822 0.04528526
-0.11228083 -0.0805394 0.011470973 -0.029725723 0.10362101 -0.04221485 -0.11923292 -0.06298253
-0.13350104 0.052021705 0.19993569 -0.028201351 -0.19200294 -0.15935549 -0.118945494 -0.5101509
-0.14632322 0.18813802 0.055217907 -0.008172138 -0.046056867 0.11124664 -0.06586669 0.08798707
0.22582835 0.048001915 0.061011776 0.019300465 0.1368976 -0.08499914 0.0018087731 -0.019164797
-0.27911922 0.019645674 0.121642746 -0.44600117 -0.25060332 0.06962122 -0.04213081 -0.14157882
-0.060210235 0.14962888 -0.14470686 -0.035751346 0.070056096 0.02515848 0.09627066 0.18126999
-0.21959779 -0.13356222 -0.23813173 -0.1459606 0.32958168 0.026025351 -0.029187372 0.039519116
-0.004580845 -0.04935403 -0.09833522 -0.08296912 0.096483886 0.10421175 0.58399326 -0.22067778
-0.12145295 -0.2048404 0.23968062 0.18745281 -0.026285851 0.023386123 0.25007915 0.0950944
0.041138224 -0.2219728 0.1376273 -0.105561815 -0.42695037 0.1373577 0.074758016 -0.1601968
-0.043101925 -0.12076003 0.27802506 0.2506428 -0.18277828 -0.11772084 -0.023087898 0.2367805
0.0135078775 0.75575125 0.18923204 -0.23153844 -0.16950761 0.01086231 0.097394064 -0.1983682
0.048439488 -0.07310457 0.088833265 -0.063616976 -0.028038222 -0.35581726 0.05123152 0.0010923289
0.2681865 0.16931973 -0.084300704 0.40546665 -0.09844867 -0.037236106 0.07874444 -0.15138212
00000000: 1b50 923d a0cb 19bc 3bf9 b53d b4a7 713e
00000010: d051 823d a73b 1dbd d9e4 63be 6317 85bd
00000020: 595d 053e 7e48 203c 47ea b33c fc9f 993d
00000030: 2a3c c4be 3540 b53d b81b 3e3b 097d 393d
00000040: 7ef3 e5bd d7f1 a4bd bff0 3b3c 5c83 f3bc
00000050: 4137 d43d 7be9 2cbd 6430 f4bd fcfc 80bd
00000060: 7fb4 08be b614 553d f1bb 4c3e 8506 e7bc
00000070: 6b9c 44be 162e 23be b299 f3bd 4099 02bf
00000080: c1d5 15be 41a7 403e 2c2c 623d 6ee4 05bc
00000090: 20a6 3cbd 47d5 e33d 1de5 86bd 9132 b43d
000000a0: 8c3f 673e a89d 443d 7ce7 793d 021c 9e3c
000000b0: e22e 0c3e 0714 aebd 5b14 ed3a 7eff 9cbc
000000c0: b7e8 8ebe f7ef a03c d51f f93d 445a e4be
000000d0: 144f 80be 9295 8e3d 5b91 2cbd 0afa 10be
000000e0: 029f 76bd 5038 193e 092e 14be 0170 12bd
000000f0: 9279 8f3d 2819 ce3c 8d29 c53d d79e 393e
00000100: 3ede 60be 89c4 08be ced8 73be b276 15be
00000110: eebe a83e 1e33 d53c 5b1a efbc ccde 213d
00000120: ea1a 96bb 7427 4abd fa63 c9bd b7eb a9bd
00000130: 5899 c53d f86c d53d 9580 153f 5bf9 61be
00000140: 53bc f8bd afc1 51be d66e 753e a1f3 3f3e
00000150: 6d55 d7bc 4194 bf3c 600a 803e dac0 c23d
00000160: 8e80 283d d64c 63be 2cee 0c3e cb30 d8bd
00000170: 3d99 dabe 7fa7 0c3e bb1a 993d a10a 24be
00000180: a58b 30bd 0951 f7bd 4d59 8e3e 4154 803e
00000190: 3b2a 3bbe a017 f1bd d522 bdbc 9676 723e
000001a0: 2550 5d3c ea78 413f 0bc6 413e 6a18 6dbe
000001b0: 6793 2dbe d5f7 313c 8a76 c73d 0921 4bbe
000001c0: 7c68 463d d9b7 95bd 37ee b53d 9e49 82bd
000001d0: 6ab0 e5bc ae2d b6be 24d8 513d 7a2c 8f3a
000001e0: be4f 893e 2762 2d3e d9a5 acbd 5399 cf3e
000001f0: 759f c9bd e384 18bd c444 a13d ea03 1bbe

att_dst f4 [1, 1, 128]
0.11116443 0.036585048 -0.16663124 -0.1472524 -0.1096882 0.057806354 0.068319894 -0.27439776
0.022938617 -0.1796555 -0.1097228 0.24482697 -0.11889717 -0.044953827 -0.26909027 -0.12815133
0.028442683 0.168411 0.009504886 -0.08802055 -0.14791042 -0.06491488 -0.20138878 -0.021842888
-0.2415086 -0.40675277 -0.25830382 0.008769325 0.2260231 -0.028153235 0.021710666 0.28518674
-0.05082077 0.08169536 -0.048790738 0.11993521 -0.22472684 -0.37309173 0.044369113 -0.15736386
0.1030344 0.1833823 -0.004908073 0.2137762 0.35831746 0.15197518 0.01465879 0.10460197
0.27227914 -0.15214933 -0.1189291 0.12960891 -0.13186812 -0.18407917 -0.21408013 0.18488744
0.22881833 -0.1274178 0.3784727 -0.09847444 -0.029642949 -0.0025426878 -0.2431353 -0.107119754
-0.13145436 -0.21132182 0.17843865 0.22250077 -0.09407287 -0.21739851 -0.18713449 0.027350916
0.19334787 0.43993467 0.18257004 0.0036943562 0.07194393 0.009190487 -0.10447521 -0.04048817
-0.1174711 -0.08542608 -0.22535604 -0.015470715 -0.24509902 0.3784026 -0.07269112 -0.02794118
-0.39030987 0.028079933 -0.008153842 0.19218172 -0.029221801 -0.0037142162 -0.12047711 0.11275635
0.13781892 -0.033168465 -0.09730029 -0.27737913 -0.109558135 -0.056529313 0.23982497 0.038833085
0.24155276 -0.60618657 -0.24136512 0.020997388 0.38783118 0.084050424 -0.1577951 -0.029998591
-0.19776198 -0.1565713 -0.035477154 -0.041424762 -0.13855252 0.18550421 -0.07483944 -0.13655847
-0.24450396 -0.22762735 0.24995069 -0.060292806 -0.1757933 -0.2001173 0.061075043 -0.0989491
00000000: 2daa e33d 34da 153d 61a1 2abe 55c9 16be
00000010: 35a4 e0bd 5bc6 6c3d 4deb 8b3d dd7d 8cbe
00000020: c4e9 bb3c 9df7 37be 59b6 e0bd ecb3 7a3e
00000030: 5c80 f3bd 8121 38bd 33c6 89be 1a3a 03be
00000040: a100 e93c ef73 2c3e 62ba 1b3c 1e44 b4bd
00000050: d475 17be 18f2 84bd dc38 4ebe dbef b2bc
00000060: 084e 77be e641 d0be 6640 84be 37ad 0f3c
00000070: 9972 673e 9da1 e6bc 91da b13c ff03 923e
00000080: 7129 50bd e64f a73d ccd8 47bd 97a0 f53d
00000090: cb1e 66be e105 bfbe 63bc 353d fe23 21be
000000a0: b303 d33d 92c8 3b3e e7d3 a0bb 26e8 5a3e
000000b0: 6375 b73e 629f 1b3e 6c2b 703c 8f39 d63d
000000c0: 2c68 8b3e 09cd 1bbe 1a91 f3bd 33b8 043e
000000d0: 7008 07be 407f 3cbe d237 5bbe 2253 3d3e
000000e0: 5a4f 6a3e d079 02be 2cc7 c13e f8ac c9bd
000000f0: c5d5 f2bc 39a3 26bb 76f8 78be 9a61 dbbd
00000100: f99b 06be bf64 58be 9fb8 363e 3ed7 633e
00000110: 47a9 c0bd b79d 5ebe 2fa0 3fbe 070f e03c
00000120: fcfc 453e 1e3f e13e a4f3 3a3e 031d 723b
00000130: 5757 933d b293 163c 19f7 d5bd ecd6 25bd
00000140: b094 f0bd def3 aebd bcc3 66be e278 7dbc
00000150: 3dfb 7abe fcbd c13e 15df 94bd e7e4 e4bc
00000160: b2d6 c7be e307 e63c b197 05bc 49cb 443e
00000170: 8f62 efbc 356a 73bb b4bc f6bd cdec e63d
00000180: 6720 0d3e a8db 07bd 6045 c7bd a304 8ebe
00000190: 0460 e0bd 488b 67bd ad94 753e 710f 1f3d
000001a0: 9b59 773e 0b2f 1bbf 6b28 77be b702 ac3c
000001b0: cf91 c63e a122 ac3d 0a95 21be 9bbf f5bc
000001c0: 1e82 4abe 3a54 20be 7e50 11bd 03ad 29bd
000001d0: b6e0 0dbe d1f4 3d3e 6c45 99bd fcd5 0bbe
000001e0: 3f5f 7abe 2517 69be 13f3 7f3e 97f5 76bd
000001f0: 2903 34be 8deb 4cbe d329 7a3d d3a5 cabd

bias f4 [128]
-0.03279684 -0.059591036 0.11166196 -0.11574078 -0.0073118415 -0.039987706 0.0013925603 0.07800169
-0.027576676 0.051616654 -0.013651312 -0.05018782 0.16670635 -0.009797006 -0.04361579 -0.00103568
-0.049391594 -0.09835315 -0.06863165 -0.018155145 0.0077685476 0.0015575185 0.020434553 0.06852695
0.0013877524 0.09864695 0.043510035 -0.00481603 -0.074581325 0.024822317 0.013750167 -0.103142515
0.038752563 0.04625001 0.03873522 -0.064952746 0.052815232 -0.08524103 0.040502016 0.055559047
0.0067204433 -0.061423536 0.017955935 -0.06110532 -0.055036772 -0.02083849 0.0051107416 -0.038442254
0.05430863 0.03574806 0.0523264 -0.10719736 0.05423954 0.066632666 -0.06172455 -0.1125433
-0.04228289 -0.010828163 -0.08995886 0.030967243 -0.098504834 -0.02635452 0.12701611 0.022338156
-0.03254717 0.01581187 -0.10371028 0.038142566 0.0071527367 0.09956512 -0.020702269 -0.016391933
-0.05312197 -0.0050578937 -0.03614448 0.0928102 -0.03149172 -0.044155017 0.08398489 -0.017773662
-0.010825325 0.03183573 0.013377538 0.0271423 0.2262769 -0.028687894 -0.1082204 0.0113216415
-0.045773502 -0.009868983 0.009909964 -0.012104135 -0.01592178 -0.047126394 0.07468344 -0.073271066
-0.032944705 -0.044471815 0.0057407203 0.046891563 0.11702379 0.050364774 -0.124189965 0.10600972
0.066577755 0.25162238 0.21166003 -0.018160807 -0.07112687 -0.042549983 -0.03945487 0.0044468045
0.05635706 0.07298938 -0.002038264 0.027755534 0.0445405 -0.06017402 -0.0034781906 -0.03284439
0.056209378 -0.023227314 0.0074488902 -0.0034219741 0.110582285 0.09189867 -0.02283475 0.01194053
00000000: fb55 06bd bb15 74bd 07af e43d 8109 edbd
00000010: 2c98 efbb 26ca 23bd 9286 b63a 5abf 9f3d
00000020: 7be8 e1bc fc6b 533d c1a9 5fbc be91 4dbd
00000030: 12b5 2a3e 9f83 20bc 78a6 32bd a7bf 87ba
00000040: d74e 4abd 606d c9bd c08e 8cbd 19ba 94bc
00000050: 4d8f fe3b a625 cc3a 5d66 a73c dc57 8c3d
00000060: 3ee5 b53a 6a07 ca3d 9437 323d cacf 9dbb
00000070: 18be 98bd 2c58 cb3c 6148 613c 623c d3bd
00000080: 02bb 1e3d a770 3d3d d2a8 1e3d f205 85bd
00000090: c954 583d d992 aebd 71e5 253d e291 633d
000000a0: 2a37 dc3b 3f97 7bbd 5318 933c 9249 7abd
000000b0: 3d6e 61bd 7bb5 aabc 0278 a73b a075 1dbd
000000c0: ba72 5e3d 8f6c 123d 3554 563d 4a8a dbbd
000000d0: 482a 5e3d b576 883d e2d2 7cbd 1a7d e6bd
000000e0: d330 2dbd 9b68 31bc 5a3c b8bd 04af fd3c
000000f0: e7bc c9bd 6fe5 d7bc 8310 023e 82fe b63c
00000100: 2e50 05bd e587 813c 0e66 d4bd 613b 1c3d
00000110: 8161 ea3b cce8 cb3d ce97 a9bc 6048 86bc
00000120: 6c96 59bd b0bc a5bb 3c0c 14bd 4613 be3d
00000130: 76fd 00bd e4db 34bd 4500 ac3d 129a 91bc
00000140: b45c 31bc 2f66 023d 762d 5b3c 8759 de3c
00000150: 22b5 673e e002 ebbc a8a2 ddbd 687e 393c
00000160: ff7c 3bbd 84b1 21bc 675d 223c 6c50 46bc
00000170: 656e 82bc 9b07 41bd a2f3 983d 240f 96bd
00000180: 07f1 06bd 1428 36bd a71c bc3b 5e11 403d
00000190: 2baa ef3d 4b4b 4e3d 4f57 febd a01b d93d
000001a0: eb59 883d a6d4 803e 68bd 583e f9c5 94bc
000001b0: f7aa 91bd e448 2ebd 6e9b 21bd 80b6 913b
000001c0: a9d6 663d 757b 953d 6594 05bb 935f e33c
000001d0: 1970 363d 0879 76bd 5bf2 63bb d787 06bd
000001e0: ce3b 663d 3547 bebc d215 f43b 3343 60bb
000001f0: f778 e23d 5f35 bc3d f10f bbbc 36a2 433c

weight f4 [128, 384]
0.060882144 0.05643239 -0.018811217 -0.1735878 0.16915096 0.067965284 -0.020891145 0.049380597
-0.020250566 0.0750839 0.01960513 -1.0002104e-06 0.07048458 0.054402348 0.1187645 -0.008268074
-0.015918981 -0.00026629443 -0.045467302 0.050375085 -0.004437274 0.025082238 -0.020789867 0.0074370704
0.012642041 -0.03540373 0.057795182 -0.010405523 -0.006001592 -0.0967186 0.0022588414 -0.08748856
0.079617046 0.08783197 -0.10051436 0.19109957 0.09934752 0.05500259 -0.17377755 0.00046040418
-0.0006460397 0.033516593 0.069343045 -0.010736456 -0.011334941 0.06875908 -0.0031415327 -0.14756265
-0.012447707 0.14105885 0.018172016 -0.013518268 0.043401226 0.0028017808 0.04648717 0.005301664
-0.029286595 -0.00027746876 0.100802146 0.013865308 -0.011893129 -0.016642177 0.09561708 0.08275262
0.099985324 0.023275422 0.04343092 0.026033165 0.06413382 0.025750145 0.024917783 -0.0228429
-0.0010623621 0.124114834 0.0092729265 -0.04913113 0.02918688 0.021373928 -0.04565397 -0.083666444
-0.061109617 0.0004744533 -0.005918004 -0.00032532017 0.05326334 -0.014136562 0.084210195 0.016960002
0.0021559857 0.034031942 -0.001495996 -0.06749747 -0.028252782 0.00045118286 0.089901276 -0.10154995
0.0018993344 -0.0061804433 0.06466228 0.00035155675 -0.023651255 -0.01999526 -0.01855742 -0.06023571
0.023823397 0.18614998 -0.026650716 -0.00024933423 0.017669426 0.0508141 -0.06792035 -3.167866e-05
-5.5382687e-05 0.03906725 -0.00025004408 -0.037585896 -0.04773134 -0.00031230706 -0.0780053 -0.0052382983
-0.057649575 -0.039330926 -0.102609664 1.8537613e-06 -0.01467342 -1.95157e-05 0.011763501 0.002558862
0.037131123 0.09856322 -0.09857438 -0.022650626 -0.0114891725 -1.0249249e-06 -9.529468e-05 0.14908326
-7.962398e-05 -0.009369527 -0.03863047 -0.008215541 -3.0355698e-06 -0.014265696 0.04889449 -0.0022900752
-0.0001584067 -2.8963932e-05 0.12069008 -0.00016646001 0.10413876 -0.024724618 -0.015907146 -0.026191304
-0.04013624 0.12933344 0.056166273 -0.14192307 0.04041641 -0.00020500316 -0.10094799 -0.08275353
-0.02015786 -0.11334062 -3.261738e-05 -0.00018329907 -0.019030163 0.028535271 -5.4952587e-05 -0.1875408
-3.7806414e-05 -0.026262047 2.8681896e-05 0.01963427 -0.0077513005 -4.067862e-05 0.030529145 0.055091646
-0.008620063 -0.035334196 -3.8563932e-05 0.10503132 -8.649445e-06 -0.009562146 -0.049684484 0.059197575
-3.111053e-05 0.02575162 0.011117557 0.01399178 -0.00740302 -0.044269837 0.015779782 0.11271902
-0.07773611 -5.3548036e-05 0.031193737 -0.08949439 0.1320474 -0.027896991 0.06803997 3.628411e-06
-0.06741709 0.0076309904 -5.547046e-09 0.120708115 -0.097225755 3.427769e-05 -0.020368608 -0.06114643
-0.096285425 1.12593525e-05 -0.13748394 8.242654e-06 -1.2679342e-12 0.13585922 -2.4848928e-06 8.0072554e-05
0.00016384714 0.036295585 -0.06873514 -0.0016842198 0.00050627574 8.920845e-06 -9.646225e-05 0.036185373
0.008779401 -0.023638109 0.06361532 0.085603766 -0.023285208 -0.0043463553 7.874552e-06 6.3426214e-10
-7.83666e-12 2.3071436e-05 -0.00057275494 0.03335119 -0.035220653 -0.13667296 4.812477e-06 -0.04138162
1.7788153e-06 -0.0014854512 -0.15236074 0.027267514 1.4406047e-06 -0.02989413 -0.03257196 0.03750416
-0.11874964 -0.024528133 -0.0036793617 -0.030171447 0.001755001 1.2193833e-06 -6.296057e-12 0.032208845
00000000: 8e5f 793d a625 673d fb19 9abc 00c1 31be
00000010: e935 2d3e 6231 8b3d e823 abbc 4f43 4a3d
00000020: 84e4 a5bc 96c5 993d f09a a03c f83e 86b5
00000030: 385a 903d ffd4 5e3d cd3a f33d d176 07bc
00000040: 8668 82bc 6f9d 8bb9 ec3b 3abd 1b56 4e3d
00000050: 8d66 91bb 4479 cd3c 834f aabc abb2 f33b
00000060: 9020 4f3c 8003 11bd a4ba 6c3d ed7b 2abc
00000070: 01a9 c4bb 6714 c6bd 1209 143b 342d b3bd
00000080: 430e a33d 3fe1 b33d 79da cdbd 9baf 433e
00000090: b676 cb3d 654a 613d bef2 31be 6762 f139
000000a0: fe5a 29ba b248 093d ba03 8e3d f6e7 2fbc
000000b0: 30b6 39bc 8fd1 8c3d 2ce2 4dbb aa1a 17be
000000c0: 78f1 4bbc bb71 103e 7bdd 943c ba7b 5dbc
000000d0: 7cc5 313d 159e 373b 5569 3e3d 95b9 ad3b
000000e0: 71ea efbc 3a79 91b9 5b71 ce3d 512b 633c
000000f0: 66db 42bc 2d55 88bc e3d2 c33d 357a a93d
00000100: 1bc5 cc3d 19ac be3c 9fe4 313d 8143 d53c
00000110: 9858 833d f8f1 d23c 6120 cc3c 0921 bbbc
00000120: f53e 8bba eb2f fe3d 79ed 173c b93d 49bd
00000130: 5319 ef3c 6018 af3c a8ff 3abd 5059 abbd
00000140: 144e 7abd 0bc0 f839 d1eb c1bb bc8f aab9
00000150: a92a 5a3d 0a9d 67bc 6576 ac3d b4ef 8a3c
00000160: 704b 0d3b 1465 0b3d 4c15 c4ba 1d3c 8abd
00000170: 6172 e7bc bd8c ec39 291e b83d 6cf9 cfbd
00000180: 16f3 f83a 5185 cabb a86d 843d 2651 b839
00000190: 47c0 c1bc 19cd a3bc bb05 98bc b8b9 76bd
000001a0: 4929 c33c 1a9e 3e3e 9a52 dabc 13b9 82b9
000001b0: 79bf 903c 7222 503d d319 8bbd b4de 04b8
000001c0: b54a 68b8 fb04 203d 5918 83b9 abf3 19bd
000001d0: f081 43bd 25bd a3b9 3ec1 9fbd 08a6 abbb
000001e0: f621 6cbd 7719 21bd 0425 d2bd c1ce f835
000001f0: c968 70bc a6b5 a3b7 b3bb 403c 95b2 273b
00000200: ce16 183d 83db c93d 5de1 c9bd ce8d b9bc
00000210: 153d 3cbc 2790 89b5 f1d8 c7b8 48a9 183e
00000220: ccfb a6b8 a582 19bc fc3a 1ebd 7a9a 06bc
00000230: b1b6 4bb6 aaba 69bc 9745 483d 1615 16bb
00000240: fa19 26b9 92f7 f2b7 5c2c f73d c58b 2eb9
00000250: b446 d53d 488b cabc b44f 82bc 258f d6bc
00000260: e665 24bd fc6f 043e 9b0e 663d 4854 11be
00000270: ad8b 253d 1ef6 56b9 d2bd cebd af7a a9bd
00000280: 1922 a5bc 211f e8bd a5ce 08b8 f833 40b9
00000290: 25e5 9bbc cdc2 e93c e47c 66b8 b20a 40be
000002a0: 5492 1eb8 8123 d7bc e799 f037 0cd8 a03c
000002b0: 9ffe fdbb 569e 2ab8 4218 fa3c c7a7 613d
000002c0: 2a3b 0dbc 97ba 10bd b5bf 21b8 a91a d73d
000002d0: 151d 11b7 8caa 1cbc f581 4bbd 2879 723d
000002e0: ad7c 02b8 10f5 d23c 6a26 363c c73d 653c
000002f0: 0895 f2bb 4a54 35bd 9a44 813c 3bd9 e63d
00000300: 1c34 9fbd c498 60b8 028a ff3c d648 b7bd
00000310: 6f37 073e 3b88 e4bc 8a58 8b3d a07f 7336
00000320: f911 8abd 630d fa3b 5598 beb1 d135 f73d
00000330: 4c1e c7bd 64c5 0f38 11dc a6bc ae74 7abd
00000340: 4b31 c5bd 8de6 3c37 97c8 0cbe ee49 0a37
00000350: 2572 b2ab ae1e 0b3e 22c2 26b6 a0ec a738
00000360: 62ce 2b39 aeaa 143d 02c5 8cbd 0ac1 dcba
00000370: 97b7 043a bdaa 1537 c74b cab8 1d37 143d
00000380: 7ad7 0f3c b5a4 c1bc c048 823d 0751 af3d
00000390: 9fc0 bebc df6b 8ebb f11c 0437 3b58 2e30
000003a0: 2edd 09ad 8889 c137 ef24 16ba 429b 083d
000003b0: 8843 10bd fff3 0bbe dd7a a136 c67f 29bd
000003c0: a1bf ee35 79b3 c2ba 7404 1cbe 1f60 df3c
000003d0: cd5a c135 89e4 f4bc 2d6a 05bd f69d 193d
000003e0: 0333 f3bd 39ef c8bc 7221 71bb 1c2a f7bc
000003f0: 1008 e63a b1a9 a335 d785 ddac 6ced 033d

att_src f4 [1, 1, 64]
-0.11754863 0.06598094 0.09304088 0.074441776 -0.1987889 0.23751056 -0.17163424 0.13230728
-0.09654738 -0.112813056 -0.010094241 -0.1255 0.15833971 0.10909516 -0.02827575 0.01690137
-0.18282755 0.1377866 0.1430335 -0.019109294 -0.24296683 -0.33206767 -0.14289747 0.03532984
0.12654251 -0.22533466 0.24703942 -0.00030026495 0.17493625 -0.13893174 -0.08937941 -0.10634921
0.20029329 0.18943669 0.05467932 -0.049170367 -0.09463589 0.13364871 -0.23320287 0.008898539
-0.014052343 0.07327421 -0.015270487 0.026468402 -0.2053993 0.115917124 0.12442771 0.061570387
0.059751514 -0.24977672 -0.07924186 -0.40206766 0.07307073 0.11260745 0.22578277 0.052761853
-0.037790734 -0.08162681 -0.07642863 -0.071535386 0.16144127 0.083391525 -0.06936946 0.15232585
00000000: 56bd f0bd 0421 873d 388c be3d ee74 983d
00000010: 518f 4bbe f835 733e e3c0 2fbe 8f7b 073e
00000020: a2ba c5bd 880a e7bd 5162 25bc 1283 00be
00000030: ce23 223e 496d df3d 8ca2 e7bc be74 8a3c
00000040: 2537 3bbe ee17 0d3e 6077 123e 188b 9cbc
00000050: 4ccc 78be c604 aabe b753 12be 06b6 103d
00000060: 5c94 013e 21be 66be e7f7 7c3e e16c 9db9
00000070: 7d22 333e 1f44 0ebe 8d0c b7bd 9dcd d9bd
00000080: af19 4d3e b1fb 413e 6cf7 5f3d de66 49bd
00000090: 76d0 c1bd 35db 083e bccc 6ebe 2dcb 113c
000000a0: cc3b 66bc ca10 963d 1131 7abc 43d4 d83c
000000b0: 3254 52be f565 ed3d f5d3 fe3d 3b31 7c3d
000000c0: 01be 743d 78c5 7fbe 8e49 a2bd d0db cdbe
000000d0: 1ba6 953d bc9e e63d 9933 673e d01c 583d
000000e0: 75ca 1abd f52b a7bd 9d86 9cbd 2581 92bd
000000f0: dc50 253e 2dc9 aa3d 9311 8ebd 4ffb 1b3e

att_dst f4 [1, 1, 64]
0.12656051 -0.013868532 -0.25952628 0.086208746 -0.0040347166 -0.07320539 -0.050672073 0.07188506
0.015464579 0.0025738054 -0.06656197 -0.042979818 -0.14311033 0.11674365 -0.08614595 -0.12097577
0.18786295 0.1671111 -0.106754296 0.0999802 0.11446548 -0.011898037 -0.061101902 0.07630561
-0.018027628 0.11984086 -0.014232416 -0.1333041 -0.018374885 -0.05740379 -0.018289587 0.09090672
0.012924531 -0.12825061 0.10352313 0.27883562 0.025845796 -0.019305602 0.014509065 0.044617243
-0.002717849 -0.1122173 -0.09499212 -0.22595257 0.11254437 -0.19250888 -0.009254382 0.25984588
0.2650186 0.030208759 -0.08606824 0.37898904 -0.030890955 0.047304254 0.09331268 -0.021308156
0.0030908177 -0.0035613927 -0.075752765 0.074721724 -0.074046776 0.04900941 0.15989895 -0.0847995
00000000: 1499 013e d738 63bc a1e0 84be 368e b03d
00000010: a835 84bb b5ec 95bd 858d 4fbd 7938 933d
00000020: 255f 7d3c 4aad 283b a451 88bd 9b0b 30bd
00000030: 848b 12be 4b17 ef3d 4a6d b0bd 25c2 f7bd
00000040: 255f 403e 2c1f 2b3e ffa1 dabd 6bc2 cc3d
00000050: e16c ea3d fcef 42bc fd45 7abd 1e46 9c3d
00000060: adae 93bc 206f f53d 142f 69bc df80 08be
00000070: ed86 96bc 3d20 6bbd 0bd4 95bc 4d2d ba3d
00000080: 69c1 533c 2154 03be ef03 d43d 8bc3 8e3e
00000090: 90ba d33c c826 9ebc 6eb7 6d3c 92c0 363d
000000a0: f11d 32bb 2fd2 e5bd 3b8b c2bd 1c60 67be
000000b0: aa7d e63d 0c21 45be b19f 17bc 850a 853e
000000c0: 85b0 873e 5c78 f73c 8c44 b0bd da0a c23e
000000d0: 070f fdbc 1bc2 413d b81a bf3d 718e aebc
000000e0: 518f 4a3b 4166 69bb 4424 9bbd b407 993d
000000f0: d6a5 97bd 17be 483d 8dbc 233e 5cab adbd

bias f4 [64]
0.052987233 -0.04053292 -0.1507519 0.038786344 -0.06571081 0.01693423 -0.040653393 -0.023305248
0.05929896 0.016449476 -0.0710092 -0.020625103 -0.03742732 0.02546654 -0.068263985 -0.051969036
0.0736362 0.05733098 -0.035678186 0.0630475 0.031126535 -0.027270338 -0.040968686 0.014163637
-0.012020989 0.059178125 0.089961655 0.050357472 0.028590992 -0.09602159 0.062724456 0.078807004
0.0055271583 0.05278524 0.07266329 0.28797898 -0.071650974 0.033641785 -0.024041936 -0.02923187
0.045196626 -0.029728472 -0.0019898738 0.006650823 -0.0023708746 -0.1324094 0.024306277 0.008876818
0.29628965 -0.077734806 0.026593002 0.1955864 0.10507597 0.060852997 0.07970301 0.09161662
0.07153942 0.015787737 -0.10193343 -0.021698907 0.0353988 -0.07211604 0.0056307577 0.008627169
00000000: 2409 593d d905 26bd b55e 1abe 6ede 1e3d
00000010: 6493 86bd a8b9 8a3c 2c84 26bd a6ea bebc
00000020: 77e3 723d 0dc1 863c 456d 91bd faf5 a8bc
00000030: 644d 19bd 359f d03c fdcd 8bbd 7cdd 54bd
00000040: 93ce 963d e4d3 6a3d 4a23 12bd 0c1f 813d
00000050: 13fd fe3c 0b66 dfbc c8ce 27bd 990e 683c
00000060: aff3 44bc c364 723d d13d b83d a343 4e3d
00000070: a837 ea3c f8a6 c4bd ae75 803d 9165 a13d
00000080: 2a1d b53b 5635 583d 7ed0 943d fb71 933e
00000090: bfbd 92bd f8cb 093d 98f3 c4bc ad77 efbc
000000a0: 1920 393d 2089 f3bc 8b68 02bb 26ef d93b
000000b0: ad60 1bbb 5496 07be f51d c73c 1370 113c
000000c0: 47b3 973e 6d33 9fbd 91d9 d93c cd47 483e
000000d0: 1232 d73d fe40 793d 553b a33d 7fa1 bb3d
000000e0: 4283 923d 4955 813c 79c2 d0bd e8c1 b1bc
000000f0: 55fe 103d 93b1 93bd 3882 b83b f858 0d3c
